…
2025-11-06 08:01:07.728386: I tensorflow/core/platform/cpu_feature_guard.cc:210] This TensorFlow binary is optimized to use available CPU instructions in performance-critical operations.
To enable the following instructions: SSE3 SSE4.1 SSE4.2 AVX AVX2 AVX_VNNI FMA, in other operations, rebuild TensorFlow with the appropriate compiler flags.
Model: "functional"
┏━━━━━━━━━━━━━━━━━━━━━━━━━━━━━━━━━━━━━━ ┳━━━━━━━━━━━━━━━━━━━━━━━━━━━━━┳━━━━━━━━━━━━━━━━━┓
┃ Layer (type) ┃ Output Shape ┃ Param # ┃
┡━━━━━━━━━━━━━━━━━━━━━━━━━━━━━━━━━━━━━━ ╇━━━━━━━━━━━━━━━━━━━━━━━━━━━━━╇━━━━━━━━━━━━━━━━━┩
│ input_sequences (InputLayer) │ (None, 20, 122) │ 0 │
├──────────────────────────────────────┼─────────────────────────────┼─────────────────┤
│ conv1d (Conv1D) │ (None, 20, 64) │ 23,488 │
├──────────────────────────────────────┼─────────────────────────────┼─────────────────┤
│ batch_normalization │ (None, 20, 64) │ 256 │
│ (BatchNormalization) │ │ │
├──────────────────────────────────────┼─────────────────────────────┼─────────────────┤
│ max_pooling1d (MaxPooling1D) │ (None, 10, 64) │ 0 │
├──────────────────────────────────────┼─────────────────────────────┼─────────────────┤
│ conv1d_1 (Conv1D) │ (None, 10, 128) │ 24,704 │
├──────────────────────────────────────┼─────────────────────────────┼─────────────────┤
│ batch_normalization_1 │ (None, 10, 128) │ 512 │
│ (BatchNormalization) │ │ │
├──────────────────────────────────────┼─────────────────────────────┼─────────────────┤
│ max_pooling1d_1 (MaxPooling1D) │ (None, 5, 128) │ 0 │
├──────────────────────────────────────┼─────────────────────────────┼─────────────────┤
│ conv1d_2 (Conv1D) │ (None, 5, 256) │ 98,560 │
├──────────────────────────────────────┼─────────────────────────────┼─────────────────┤
│ batch_normalization_2 │ (None, 5, 256) │ 1,024 │
│ (BatchNormalization) │ │ │
├──────────────────────────────────────┼─────────────────────────────┼─────────────────┤
│ max_pooling1d_2 (MaxPooling1D) │ (None, 2, 256) │ 0 │
├──────────────────────────────────────┼─────────────────────────────┼─────────────────┤
│ bidirectional (Bidirectional) │ (None, 512) │ 1,050,624 │
├──────────────────────────────────────┼─────────────────────────────┼─────────────────┤
│ dropout (Dropout) │ (None, 512) │ 0 │
├──────────────────────────────────────┼─────────────────────────────┼─────────────────┤
│ dense (Dense) │ (None, 128) │ 65,664 │
├──────────────────────────────────────┼─────────────────────────────┼─────────────────┤
│ dropout_1 (Dropout) │ (None, 128) │ 0 │
├──────────────────────────────────────┼─────────────────────────────┼─────────────────┤
│ out (Dense) │ (None, 5) │ 645 │
└──────────────────────────────────────┴─────────────────────────────┴─────────────────┘
 Total params: 1,265,477 (4.83 MB)
 Trainable params: 1,264,581 (4.82 MB)
 Non-trainable params: 896 (3.50 KB)
Class weights: {0: np.float64(1.4166675432598748), 1: np.float64(1.2084210054061328), 2: np.float64(1.0149252044161423), 3: np.float64(1.0008955445728513), 4: np.float64(0.6746762517846855)}
Training with class weights...
…
